…
INFO:core.model.components.embedding.gnn:Init Pooling layer
INFO:core.model.components.embedding.gnn:Init Fully connected layers
INFO:core.model.components.embedding.gnn:Init Softmax layer
INFO:core.contrastive_learning.model.model_cl:Init Fully connected layers
INFO:core.contrastive_learning.trainer_cl:Loading... model from checkpoint: experiments/hnaskd792hr79afh32r9ffcn/model_contrastive_learning/model_cl.pt
INFO:core.contrastive_learning.trainer_cl:Loaded model:
 ModelModuleCL(
  (gnn): ModelModule(
    (gnn): SequentialGNN(
      (gnn_1): SAGEConv(
        (feat_drop): Dropout(p=0.0, inplace=False)
        (fc_neigh): Linear(in_features=5, out_features=7, bias=False)
        (fc_self): Linear(in_features=5, out_features=7, bias=True)
      )
      (gnn_relu_1): ReLU()
      (gnn_2): SAGEConv(
        (feat_drop): Dropout(p=0.0, inplace=False)
        (fc_neigh): Linear(in_features=7, out_features=10, bias=False)
        (fc_self): Linear(in_features=7, out_features=10, bias=True)
      )
    )
    (pooling): MaxPooling()
    (fc): Sequential(
      (fc_1): Linear(in_features=10, out_features=10, bias=True)
      (fc_relu_1): ReLU()
      (fc_2): Linear(in_features=10, out_features=20, bias=True)
      (fc_relu_2): ReLU()
      (fc_3): Linear(in_features=20, out_features=10, bias=True)
      (fc_relu_3): ReLU()
      (fc_4): Linear(in_features=10, out_features=2, bias=True)
    )
    (softmax): Softmax(dim=1)
  )
  (fc): Sequential(
    (fc_1): Linear(in_features=10, out_features=10, bias=True)
    (fc_relu_1): ReLU()
    (fc_2): Linear(in_features=10, out_features=20, bias=True)
    (fc_relu_2): ReLU()
    (fc_3): Linear(in_features=20, out_features=10, bias=True)
    (fc_relu_3): ReLU()
    (fc_4): Linear(in_features=10, out_features=2, bias=True)
  )
)
INFO:core.contrastive_learning.data.datamodulecl:Get test dataloader
INFO:core.data.checkpoint_graph:Loaded graph from file data_storage/processed/fcg_embedding/00207D3B4988E6AD2152854B8E84095511CDF4C268ED9D428EF152758F30EB85.fcg
INFO:core.data.checkpoint_graph:Loaded graph from file data_storage/processed/fcg_embedding/0018F2961C34905D09DD58A93F546B04274E1F97163ACF1E1B293690997B331F.fcg
…
